XML/Default/optimization_guide_prediction_model_downloads/dfb6c2f8-490f-486f-8d80-c33c4ed70977/model.tflite (tflite, 407748 bytes, 166 tensors)

context_transformer_0/bottleneck_input/norm/add f4 [32]
000000 e4 4b 2e bd 75 10 83 3d dd c1 1a be de 80 54 be
       -0.042552844 0.06399623 -0.15113015 -0.20752284
000010 38 ee cc 3d 9c 25 f4 3d d0 32 b5 3c 25 94 00 be
       0.10006374 0.11921236 0.022118956 -0.12556513
000020 80 7f a6 3c e2 78 59 bd 7a 35 1d 3d 05 56 44 3d
       0.020324469 -0.0530938 0.038381077 0.047933597
000030 7c 2a 9a 3d 21 04 52 bd fe 9f 8b bd b3 d9 78 3e
       0.075276345 -0.05127347 -0.068176255 0.24301796
000040 3a e9 2d bd a9 60 ad bc bc a3 8f 3c c6 96 73 bd
       -0.04245875 -0.021164255 0.01753413 -0.05946996
000050 60 12 60 bd 84 59 56 be e1 05 79 3b 87 a5 00 3e
       -0.054705024 -0.20932585 0.003799789 0.12563144
000060 e6 e6 7a 3d 00 b7 5b bb 70 9b 79 bd 53 5b b1 3d
       0.06125536 -0.0033525825 -0.060939252 0.08659997
000070 f0 79 46 3c 16 20 76 bd e2 2a bd bd 3a 36 58 bd
       0.012114033 -0.060089193 -0.09236695 -0.05278609

context_transformer_1/bottleneck_input/norm/add f4 [32]
000000 48 5c 31 be 54 c2 6d bd c4 37 83 bd a8 71 a1 bd
       -0.17320359 -0.058046654 -0.06407121 -0.07883006
000010 08 1a 14 bd 66 8e 23 bc 2c 66 87 bd f3 72 9f bd
       -0.036157638 -0.009982681 -0.066112846 -0.07785597
000020 d2 2d 00 be ec 90 3b 3d 2e 0c 80 bd e2 9d c1 3b
       -0.12517479 0.045792505 -0.06252323 0.0059087137
000030 53 c3 1c be 86 fa 70 bd e9 83 0f 3d b6 74 10 be
       -0.15308885 -0.058832668 0.03503791 -0.14107022
000040 1c cd 4b 3d 96 45 b2 bd 59 43 84 3d b8 9d 8a ba
       0.049756154 -0.08704679 0.06458158 -0.0010575568
000050 c1 ee 90 3c 36 7f 25 3d 0b 7a 2d 3c ae 9c 7b 3e
       0.017691972 0.04040452 0.010588179 0.24571487
000060 7a 21 a3 3c f6 49 af bd ac af 04 3d cb ec 10 3e
       0.019913424 -0.08559029 0.032394096 0.1415283
000070 b6 cd 8e bd a6 a1 91 be 43 71 8a 3d 48 7f e4 bb
       -0.0697283 -0.2844364 0.06759884 -0.006973181

mention_transformer_0/bottleneck_input/norm/add f4 [32]
000000 26 9c 8b bd 53 f7 be bd ee 74 37 3e ef 0f 1a 3d
       -0.06816892 -0.09324517 0.17915699 0.03761285
000010 1c 33 c5 3d f6 e3 3d 3d ae 2f 0b be 04 8a 49 3e
       0.09628889 0.04635998 -0.13592407 0.19681555
000020 1c 43 db 3c e5 32 9b 3d 25 99 d0 3d c0 79 5e 3d
       0.026765399 0.07578067 0.1018546 0.05431533
000030 fc 84 eb bd 24 1f 39 3d 9f da 8f be 99 b9 8d be
       -0.11499974 0.045195714 -0.28096482 -0.27680662
000040 d9 09 e0 bd b2 e4 bb bd e2 a5 fd 3b 45 f6 04 be
       -0.10939378 -0.091744795 0.007740722 -0.1298457
000050 ef 2c 8c bc 21 45 fe 3c 50 f2 39 3d 97 71 88 3d
       -0.01711127 0.031038823 0.045397103 0.066622905
000060 e9 f4 dd bc 4c 46 92 3d 5e 85 86 3e 30 1f 96 3d
       -0.027094321 0.07142314 0.26273626 0.07330167
000070 44 03 83 bb 54 6d fa bd d2 d8 f1 3c fc 7a 6b 3e
       -0.003998192 -0.12227884 0.029522333 0.22996134

mention_transformer_1/bottleneck_input/norm/add f4 [32]
000000 e1 ce 9b 3d 80 52 09 3f 2b b5 07 be 30 7b 90 be
       0.076078184 0.5364151 -0.13252704 -0.28218985
000010 04 a7 29 3e 02 7d ac be c0 46 e7 3a 80 26 41 3b
       0.16567618 -0.33689123 0.0017644987 0.002947241
000020 ed 67 bc bd cd a8 8c bd 80 09 c7 3e dc 45 2a 3e
       -0.0919951 -0.06868134 0.38874435 0.16628212
000030 5e 7e 02 3f c9 9c 16 3c c8 71 da 3d 45 96 e6 3c
       0.5097407 0.009192654 0.10666233 0.028147826
000040 80 85 df 3b 9b 0f a8 be b8 b0 8d 3e c6 79 a1 3e
       0.0068213344 -0.32824406 0.27673888 0.31538218
000050 11 62 a3 bd 26 34 5f be 33 1e e4 bd d2 29 36 bc
       -0.07977689 -0.21797237 -0.111385725 -0.011118369
000060 38 c7 03 3e cd 47 cb 3e 1e fa 0c 3f 37 2a dc 3e
       0.12868965 0.39703217 0.5506915 0.43000957
000070 9a 12 46 be aa 28 cd be 5c ed 94 bd 72 01 12 3e
       -0.19343033 -0.40070087 -0.07271835 0.14258364

context_transformer_0/attention/value/add;context_transformer_0/attention/value/einsum/Einsum;context_transformer_0/attention/value/add/ReadVariableOp/resource f4 [32]
000000 61 9b f6 bb 2b 42 4f bd 3a 8b 7b bd c8 29 2d bd
       -0.007525847 -0.050600212 -0.061412074 -0.042276174
000010 1c 82 44 3d 49 04 b7 bd d2 c6 82 3d 36 54 1c bc
       0.047975644 -0.08936364 0.06385578 -0.009541562
000020 2a c6 cf 3c 73 ec 13 3d 2b 89 4e 3d 00 2f e4 3c
       0.025363047 0.036114167 0.050423782 0.027854443
000030 b6 35 87 3d 69 15 bb 3c d9 0d c1 3c 64 e5 09 bd
       0.066020414 0.022837358 0.023566173 -0.03366603
000040 e7 21 fe bc c8 c0 9d bd 5c 7b 8f bd 42 7b 2e 3d
       -0.031022025 -0.07702786 -0.07005951 0.042598017
000050 10 74 b3 3b 76 b5 c6 bc bf 98 96 bc 22 c5 66 3d
       0.005476482 -0.02425645 -0.018383382 0.056340344
000060 52 c5 77 3b 1d da 99 3d e8 23 f0 bc 8b 96 47 3d
       0.003780682 0.07512305 -0.029313996 0.048727553
000070 d7 38 3b 3c 83 6e 5d 3d 9e 87 94 bc 13 9e b1 3d
       0.011427126 0.05406047 -0.018131074 0.086727284

context_transformer_0/bottleneck_input/norm/mul f4 [32, 32]
000000 af a7 ab 3e 04 dd a8 3d 2a 1b e8 3c 9e f0 0a bd
       0.3352637 0.082452804 0.028333265 -0.033920877
000010 3a 10 4c be d6 db 86 bd 59 11 e0 bc f5 09 8e bc
       -0.19928065 -0.06584899 -0.027352022 -0.017338732
000020 bb b6 4e 3e 81 ac 0b bd 71 c4 f7 be 45 5a 24 3d
       0.20186894 -0.03410006 -0.4839206 0.04012515
000030 af 7f f1 bd 41 b0 80 be b3 f7 38 be 30 83 ca bd
       -0.11791932 -0.2513447 -0.1806324 -0.09888303
000040 59 e1 0f be 76 28 c8 3d bf 61 4e be ff dd b1 bd
       -0.14050807 0.09773342 -0.20154475 -0.086849205
000050 3f e3 9d 3c 0e 3f 18 be 2b 17 87 3e 3f 32 f7 3d
       0.019273398 -0.14867803 0.26384863 0.120701306
000060 29 6e 84 be b4 45 25 3e 6b cd 60 be ec 26 53 3e
       -0.25865296 0.16139871 -0.2195336 0.20620316
000070 51 8b 3d 3e f1 4d 86 be 18 51 13 be bb 48 4c be
       0.18510176 -0.2623134 -0.14386404 -0.1994962
000080 bc cd 79 be 6f 44 50 3e 40 66 fd bd 9b 7a f6 3e
       -0.24394888 0.20338605 -0.12373018 0.48140416
000090 f3 c3 ee bd 47 73 04 3d a1 00 a4 bd 1a bf a9 3e
       -0.11658468 0.0323365 -0.080079325 0.3315361
0000a0 4b 64 67 3c 2a 02 c4 be 06 03 9a be d3 79 4c 3e
       0.014123033 -0.382829 -0.30080432 0.19968347
0000b0 a0 cb 3d be 48 9e 32 be 73 fc 6f be ab 67 79 3e
       -0.18534708 -0.17443192 -0.23436145 0.24355952
0000c0 7c 24 b4 bd 54 e4 fb bd 9e 63 dd be df a1 a6 be
       -0.08796021 -0.122994095 -0.43240064 -0.32545373
0000d0 e6 9b 9b 3e 1b 67 b4 3e e9 2b b2 3d a2 ce 2c 3e
       0.3039238 0.35234913 0.086997814 0.16875699
0000e0 0c 5d da be 63 ae 3a be 4b fb ce be 7c 8a d5 3d
       -0.42649114 -0.18230586 -0.40426096 0.104268044
0000f0 b0 c2 21 3f 09 0d 21 bf 69 bc de 3d 29 3d 10 3c
       0.63187695 -0.62910515 0.1087578 0.008803644
000100 b5 40 53 bd d9 26 99 be c5 c8 b7 3e c4 1a 04 3d
       -0.05157538 -0.2991245 0.35895362 0.03225209
000110 c6 d1 f1 3b 90 d2 b2 3d 4f b3 8a 3e 26 97 c6 bd
       0.0073797433 0.08731568 0.27089927 -0.09696798
000120 ca 5a 54 be b3 1c 1b 3e e2 d9 e1 3d 9a 65 70 3d
       -0.20737758 0.15147667 0.11027886 0.058690645
000130 b4 7b 38 3d ac 56 2d 3d e0 98 0a 3d 7a c0 61 bd
       0.045039847 0.042318985 0.0338372 -0.0551152
000140 b9 ec 08 be 7e d9 4f 3e 04 2c 2b 3e 9d 42 1f 3d
       -0.13371553 0.2029781 0.1671601 0.038881887
000150 d4 43 0f 3d 1e 8d 4b be ed 8e 93 bd 79 6b 4a 3e
       0.034976795 -0.1987805 -0.07204995 0.1976756
000160 07 8d 0a 3d 3c 2d 49 3d 1f f2 35 3e 73 14 bf bd
       0.0338259 0.049115404 0.17768143 -0.09330072
000170 c7 bf 1c be 14 e9 36 bd 70 75 91 bd a8 ef 0e be
       -0.15307532 -0.044655874 -0.071024776 -0.13958609
000180 e3 69 08 3e e1 00 46 bd 4e 93 24 3e a1 a0 82 3d
       0.13321643 -0.048340682 0.16071817 0.06378294
000190 0e e2 1e 3e 58 dd 99 bd cb c6 a7 3e 1d 71 91 be
       0.1551592 -0.07512921 0.32768854 -0.2840661
0001a0 aa c4 64 3e a8 a7 7d 3e 0c b2 1d ba 4c a6 8f 3e
       0.22340646 0.24770987 -0.0006015606 0.28056562
0001b0 c0 21 a5 be f0 f0 d7 bd 5e 99 3b be 4e fa 5e 3e
       -0.32252312 -0.10544002 -0.18320224 0.21775171
0001c0 57 b0 c1 be f9 13 06 3e cc c4 9c 3c 62 d7 7f 3c
       -0.3782985 0.13093556 0.019136809 0.015615316
0001d0 9d 71 1f be cc cc 65 be 52 ce 4b 3b 79 1e c9 3d
       -0.15570684 -0.22441405 0.0031098318 0.09820265
0001e0 0e b4 1a be ed bf bd 3a 5c bb 95 be 61 b3 98 3e
       -0.15107748 0.0014476754 -0.29244506 0.29824355
0001f0 1f 08 81 3e 0d 7c 97 bc 0c 7a 2b be 12 32 33 3e
       0.25201508 -0.01849177 -0.16745776 0.17499569
000200 46 43 2f 3e 4d 05 d7 bd 7e b9 66 3e df ba c3 bc
       0.17115507 -0.10499058 0.22531697 -0.023892818
000210 6c 3b 63 be 1e 26 0e 3d d5 01 0a be da 3b b9 3d
       -0.22190636 0.03470432 -0.13477261 0.09044619
000220 7d bb 6a be eb 5a 42 bd 44 f7 85 3d e2 17 8b 3d
       -0.22923084 -0.047449987 0.06541303 0.06791665
000230 12 09 86 3e e5 eb 97 3d 30 38 47 bd 64 17 25 ba
       0.26178795 0.0741804 -0.04863757 -0.0006297736
000240 56 a1 a7 bd 1f 55 6e 3d 60 0f 8b 3d 94 c1 fb 3d
       -0.08185069 0.058186647 0.06790042 0.122927815
000250 2b ee 0f 3e d1 6e da bc 50 c0 2c be fe 46 82 3e
       0.14055698 -0.02666417 -0.16870236 0.25444788
000260 74 57 09 be 2d 3f e7 bd b8 73 33 3c f3 6e 27 be
       -0.13412267 -0.11291347 0.0109528825 -0.16350918
000270 c8 db c0 bc 1e 88 69 be e8 12 87 be 14 87 0f be
       -0.0235423 -0.22805831 -0.26381612 -0.14016372
000280 9d b1 86 bd 99 2f fe 3e 4e 78 a1 be fd 98 66 3d
       -0.06576846 0.4964569 -0.31537098 0.056298245
000290 4d 05 bc be 18 4b 80 3e 43 41 cc bd 01 58 b0 be
       -0.36722794 0.25057292 -0.09973385 -0.34442142
0002a0 8a 42 de 3d 70 f5 a1 be 27 c4 de bd bb 42 d3 3e
       0.10852535 -0.31632566 -0.10877257 0.4126185
0002b0 2a ba 8d 3e a1 08 5e be 1c f1 1a be 66 a2 0e 3d
       0.27681094 -0.21682979 -0.15131038 0.034822844
0002c0 c5 30 a9 bc fd 6b 87 bc 3e 63 15 be 33 3f 9d 3e
       -0.020653138 -0.016530985 -0.14588639 0.3071228
0002d0 71 7e aa 3e fa 39 33 3e 9f 8a a2 3e 34 c6 cc 3e
       0.33299592 0.17502585 0.31746385 0.39994967
0002e0 4a 57 27 3e 5f a7 be be fe 13 8d be e6 7a bb bd
       0.16341892 -0.3723707 -0.27554315 -0.091543004
0002f0 36 3d ab 3e 43 54 e1 be 68 d9 64 be c8 28 78 be
       0.33445138 -0.440096 -0.22348559 -0.24234307
000300 80 5a cb be ee 48 f5 be 7e 90 02 3e 45 79 4b be
       -0.39717484 -0.47907203 0.12750432 -0.1987048
000310 81 fd 1f bd f7 33 38 3d 7b 28 1f bd 0a a9 b3 3d
       -0.03906012 0.044971433 -0.038856965 0.08772476
000320 7c 92 68 be 55 30 c9 3e a4 4a 19 be a9 24 91 3c
       -0.2271213 0.39294687 -0.1496988 0.017717676
000330 5e 95 46 bd dd 68 ac 3e 0c db f3 3c 99 42 4e be
       -0.04848229 0.33673754 0.029767536 -0.20142592
000340 b3 2c c8 3d 1f 94 78 bc b8 8a ff 3d 98 e1 51 be
       0.09774151 -0.015172034 0.124776304 -0.20496213
000350 9d 18 be bd ee 71 7f 3c e7 07 cd 3d ad 13 13 3d
       -0.09282038 0.015591128 0.10011273 0.035907436
000360 37 c5 0d 3e 3a 6e 5d be e5 fd 90 3e 5a 22 da be
       0.13844763 -0.2162408 0.28318706 -0.42604333
000370 3d 85 2b bd a5 54 82 3e d2 f0 1d 3e e2 0a 9e 3c
       -0.041875113 0.25455204 0.15423897 0.019292299
000380 8f f1 33 3e 57 c3 3d 3c 66 32 3c bc 7c 97 7c 3c
       0.17572616 0.011582217 -0.011486625 0.015416976
000390 b5 e5 65 3d dc e4 09 3d 66 44 96 3d 74 f5 42 bd
       0.05612727 0.033665523 0.07337265 -0.047597364
0003a0 3c ff ee bc cc b3 22 3e d6 9d 74 be f1 c8 ab bc
       -0.02917444 0.158889 -0.23888335 -0.02096984
0003b0 f4 e1 79 3c 0a ba c7 3d cf 15 48 bd 02 c1 73 bd
       0.015251625 0.09752281 -0.048848923 -0.05951024
0003c0 34 9a cc 3d f2 b3 bf bc 6a a7 2f bd a3 15 34 be
       0.099903494 -0.023401234 -0.042884268 -0.17586379
0003d0 59 89 68 3d 7f fe 9f bd 99 13 8b 3d f0 13 e2 3d
       0.05677161 -0.07812213 0.06790847 0.11038959
0003e0 1f 2a d9 bd 57 3c 29 3e 7b 38 32 3e 18 4e 13 bd
       -0.10603737 0.16526924 0.17404358 -0.035963148
0003f0 37 8d 72 bd 48 26 e5 bd dd 14 f7 3d f1 07 06 3e
       -0.059216704 -0.11188942 0.12064526 0.13088967

context_transformer_0/kq_shared_bottleneck/norm/mul;context_transformer_0/kq_shared_bottleneck/norm/add;context_transformer_0/attention/key/einsum/Einsum;context_transformer_0/attention/key/add;context_transformer_0/attention/value/einsum/Einsum;context_transformer_0/attention/key/add/ReadVariableOp/resource f4 [32]
000000 ee 9f 4f bd 78 3e 5f 3d 84 d1 94 be 55 0e 8b 3e
       -0.05068963 0.054502934 -0.29066098 0.27159372
000010 ad bf e5 bd 26 8c 33 3e 6e 9c 3f 3e 13 c5 cb 3d
       -0.112182 0.17533931 0.18712017 0.09949698
000020 72 e2 3d 3e ee 74 ac 3e eb 80 44 3e 75 b1 65 be
       0.18543413 0.3368296 0.19189803 -0.22430976
000030 2d aa 47 be 58 60 8b 3e 01 ab 9d be bb 0c 96 be
       -0.1949851 0.27221942 -0.30794528 -0.29306588
000040 03 40 9b bd 12 2a 96 bd a7 f2 88 be f8 72 84 3d
       -0.07580569 -0.07332243 -0.2674763 0.06467241
000050 cc 91 ba bc 62 48 a5 3e 70 76 85 3d 12 7f a1 bc
       -0.0227746 0.32281786 0.06516731 -0.019713912
000060 e6 15 c4 bd 21 53 f2 bd 48 bf e3 3d f7 34 c0 3e
       -0.09574489 -0.11832262 0.111204684 0.3754041
000070 b2 5b 60 be 66 8b cc 3e 93 98 88 3d 15 f8 c4 bd
       -0.21909979 0.39950103 0.06669726 -0.096176304

context_transformer_0/kq_shared_bottleneck/norm/mul;context_transformer_0/kq_shared_bottleneck/norm/add;context_transformer_0/attention/key/einsum/Einsum;context_transformer_0/attention/key/add;context_transformer_0/attention/value/einsum/Einsum;context_transformer_0/attention/key/add/ReadVariableOp/resource1 f4 [32, 32]
000000 c8 5e 80 3d 63 ec 6e bd ce 07 d3 3d a6 ea e6 3d
       0.06268078 -0.058330905 0.10304223 0.112752244
000010 8f 51 50 bd 0f 99 80 be c6 5f 1c 3e ed bf 07 3e
       -0.05085903 -0.25116774 0.1527091 0.13256808
000020 56 1b c5 3d ea 73 53 be 1d e0 a4 3e 9b 34 5a 3d
       0.096243545 -0.20649686 0.32202235 0.053272825
000030 ee 27 f5 3d 09 8c f7 3e c9 31 a9 3c 42 34 5b be
       0.119705066 0.48349026 0.020653622 -0.21406654
000040 c5 f5 3c be aa af 76 bc 21 f2 8d be 34 aa a9 bd
       -0.18453129 -0.01505653 -0.27723792 -0.08284417
000050 a0 f6 8b be 96 05 6e 3e 02 a9 d4 bc 67 e3 a1 bd
       -0.27336597 0.23244318 -0.025959495 -0.07904702
000060 d2 79 98 be 67 c3 b9 be 79 50 a9 3d f4 7c cb bd
       -0.29780442 -0.36281893 0.08267302 -0.09935942
000070 e5 c2 71 3d bc 8a 45 bd 3a 16 0e be 94 3a 73 ba
       0.059023757 -0.04822801 -0.13875666 -0.0009278443
000080 11 d6 13 3d 9a e5 8e bd ee 03 31 bd 1c ee bd bd
       0.03609282 -0.06977387 -0.04321664 -0.092739314
000090 25 07 d6 3d b3 76 91 3e bf 2e bd bd 1f 5c 2a be
       0.104505815 0.28410873 -0.09237432 -0.16636704
0000a0 db b7 fb bd c8 99 c5 3d ac bd 73 be 42 71 ca bd
       -0.12290927 0.09648472 -0.23802823 -0.098848835
0000b0 49 7b 6d bd 9c 72 0f bf e2 68 6c 3d 46 f3 c8 3d
       -0.057978902 -0.56034255 0.05771721 0.09812026
0000c0 4a 21 38 3e c0 96 64 3d 5d 6a 85 3e f7 46 d9 bc
       0.17981449 0.05580783 0.2605771 -0.026523096
0000d0 04 c0 63 3e 1e 7a 37 be 28 60 86 bb a4 75 8c 3d
       0.22241217 -0.17917678 -0.004100818 0.06858376
0000e0 8e 45 b6 3e 35 fa 67 3e 7f be 9d bd 70 10 3a 3e
       0.3559994 0.2265404 -0.0770235 0.18170333
0000f0 40 6b e9 bd d2 2b 07 3d 1c 4e 3c 3e 57 c9 d0 bd
       -0.113974094 0.033000775 0.18389171 -0.101946525
000100 dc c9 18 3a 76 11 c5 be ba 06 f3 bd 27 71 30 3e
       0.0005828419 -0.38489884 -0.11866517 0.17230664
000110 e7 f4 34 3d f7 8e 21 be a3 2b 6b bc 3c 5f b6 be
       0.04417887 -0.15777193 -0.0143536655 -0.35619533
000120 ed 7e 01 be 19 8d b8 3e 3b 39 d1 be 92 93 b6 be
       -0.12646075 0.3604515 -0.40863976 -0.35659462
000130 45 76 fd bd 0c 4e e4 3e 9d 95 5a 3e 51 0e 8f bd
       -0.12376074 0.44590795 0.21346135 -0.069851525
000140 77 13 ab bd 19 14 c0 3d c0 ba 86 be c4 5e b1 3e
       -0.08353322 0.09378833 -0.26314354 0.34642613
000150 53 33 4d 3c 0b 8c bc be a0 6f e2 3d a3 3d 50 3e
       0.012524444 -0.36825594 0.11056447 0.20336013
000160 95 c0 06 be a4 01 9f 3e ed 35 03 bd 47 51 82 3d
       -0.13159402 0.3105594 -0.03203385 0.06363159
000170 d6 6f 31 bd b8 17 57 3e de 2e 46 bd 7e e8 3a 3e
       -0.043319546 0.21005142 -0.04838454 0.18252751
000180 b1 a5 80 3d 0b ca 7e 3e a4 a8 4e 3d 7f 7f 3b be
       0.06281603 0.24881761 0.050453797 -0.18310355
000190 1e 6e 61 3d fd 1b 72 3e 3d 53 2a bd 8e 2f 73 3e
       0.055036657 0.23643489 -0.04158329 0.2374861
0001a0 33 55 c1 3d 95 8b b1 be fd 05 b6 3e 7e 76 71 3e
       0.094400786 -0.34676805 0.35551444 0.23580357
0001b0 14 70 49 3e 4b 73 f9 be 48 06 00 be ee bb 79 bd
       0.1967166 -0.48720774 -0.12502396 -0.06097024
0001c0 50 95 2f 3e b9 6f 0e bd af 71 57 3e 96 c1 ca be
       0.17146802 -0.034774516 0.2103946 -0.3960082
0001d0 84 b3 26 3d 5a 0a 9d 3e c6 5d 25 bd 7b f8 59 be
       0.040698543 0.3067196 -0.040372632 -0.21286194
0001e0 fd c6 71 3e d0 2a 8a be b4 69 45 3d 88 ab 72 3d
       0.23611064 -0.26985788 0.04819651 0.059245616
0001f0 84 65 db bd 3d 27 45 be 01 63 24 3e 5d ab 8d be
       -0.10712722 -0.1925325 0.16053392 -0.27669802
000200 c6 7d 7a bd d8 dd 7a bd ad c3 a9 3b c7 76 07 3e
       -0.061155103 -0.061246723 0.005180797 0.13228904
000210 4e 1d 86 bd 40 97 7e be e2 25 2b 3c 59 63 bd 3c
       -0.06548558 -0.24862385 0.010446044 0.023118662
000220 a6 f6 b9 3d 18 ea 64 3d ec dd c9 3d 67 96 cc bc
       0.090802476 0.05588731 0.09856781 -0.024974061
000230 a9 a5 67 bb f4 8b 0a 3f fa b2 1b 3a 33 f3 30 bd
       -0.0035346544 0.541198 0.00059394503 -0.043200683
000240 82 22 3a be 07 f4 70 bc 38 00 8f be b5 6d 13 3e
       -0.18177226 -0.014706618 -0.27929854 0.14397319
000250 de 87 10 be 26 d5 a3 3b 8e 96 ba 3d 21 f7 55 3d
       -0.14114329 0.0049997745 0.09110747 0.052237634
000260 51 dc 8b be 0c eb e6 bd ff e2 fa 3d ea 92 04 be
       -0.27316526 -0.112753004 0.12250327 -0.12946668
000270 e4 34 ac 3d f4 3c 38 3d 3e 6e 25 be 84 8c 54 3e
       0.084085256 0.044980004 -0.16155335 0.20756727
000280 e2 e3 98 be b9 a8 bd 3e b8 ba ce bd 17 71 62 be
       -0.2986136 0.37042788 -0.100942075 -0.22113453
000290 55 6d 03 be f4 58 58 3d c1 f9 09 be 24 6d 13 bd
       -0.12834676 0.052819207 -0.1347418 -0.035992756
0002a0 4e 56 04 3e 54 5a cd 3e ae de a2 be 98 e4 0c 3e
       0.12923548 0.40107977 -0.31810516 0.13759077
0002b0 48 f1 42 be 3f 6d ac be fb b5 5f be 82 a8 d6 3e
       -0.19037354 -0.33677098 -0.21846764 0.41925436
0002c0 3d db 9b 3d b7 08 7f bd d7 07 fc 3e 4c 69 ab 3e
       0.07610176 -0.06226417 0.4922473 0.33478773
0002d0 42 86 77 3e 28 f3 65 be 0c 3b 01 3e 7b 38 70 3e
       0.24172309 -0.22456038 0.12620181 0.23459046
0002e0 b2 52 07 3e ba a2 99 3e c6 52 43 3e 68 ae 8f bd
       0.1321514 0.30006963 0.19074544 -0.07015687
0002f0 4a 50 86 3d db ab 5e bc 6a 22 a5 bc c6 a5 3b 3e
       0.06558283 -0.013590778 -0.020158011 0.18324956
000300 d0 55 17 3d 20 1d 54 3e 72 c7 29 3e 33 ac 0c be
       0.03694707 0.20714235 0.16579989 -0.13737564
000310 72 5a 07 bd 80 93 41 3e 52 ac ca 3c 3d d4 3f 3e
       -0.03304524 0.18903923 0.024740372 0.18733306
000320 c4 ae e5 bc 5c 9f 92 be e0 02 36 3e 1c 87 ee 3d
       -0.028037436 -0.28637207 0.17774534 0.11646864
000330 ab 66 37 3d 81 bf 09 bf ec fb 91 bd 10 f4 88 3d
       0.044775646 -0.53807837 -0.071281284 0.06687176
000340 2b 9c fc 3d 06 20 aa bd 9c 2b 8d 3e 9a 47 81 be
       0.12334474 -0.08306889 0.27572334 -0.2524994
000350 de af 99 3d 4c c0 2b 3e 09 70 46 be 30 1b ce bd
       0.07504247 0.16772574 -0.19378676 -0.10063779
000360 9d 2a 5d 3e 82 2c cb bd 0d dc 0a be 8b e3 1d 3c
       0.21598287 -0.099205986 -0.13560505 0.00963677
000370 06 f5 bc 3d 49 a9 26 be d9 05 b7 3d b0 65 6d be
       0.09226422 -0.16275515 0.08936662 -0.23183322
000380 fc 69 cc bd 2c 8e 12 3e 93 91 8d 3c a4 67 11 be
       -0.099811524 0.14312047 0.01728133 -0.14199692
000390 41 5b 70 bc a0 08 28 3e 56 c6 2d bc f6 c4 2b bc
       -0.014670194 0.1640954 -0.010606369 -0.010483971
0003a0 d4 dc 9f bd f4 cd 99 3d 6c aa 0c be 1f c3 44 3d
       -0.078057915 0.075099856 -0.13736886 0.048037644
0003b0 94 f3 34 bd b1 a2 d3 be 8c 6d 65 bd 5a 59 6e 3e
       -0.044177607 -0.4133506 -0.056012675 0.23276272
0003c0 10 18 e2 3d 7c d6 82 bd 0e 73 9c 3e 47 32 e3 3c
       0.11039746 -0.06388566 0.3055653 0.027733935
0003d0 c2 e5 36 3e c6 da a0 bd 6a 2c 16 bd 8f 7f 2e 3d
       0.17861083 -0.07854228 -0.03666345 0.042602118
0003e0 fe ff 73 3e d7 bb 22 3e eb e8 24 bd 0b 6e c7 3c
       0.23828122 0.15891968 -0.04026119 0.024344465
0003f0 c9 a3 19 3d fe f2 38 bd 52 31 71 3d 7d 14 5f bd
       0.037509713 -0.04515361 0.058884926 -0.0544629

context_transformer_0/kq_shared_bottleneck/norm/mul;context_transformer_0/kq_shared_bottleneck/norm/add;context_transformer_0/attention/query/einsum/Einsum;context_transformer_0/attention/query/add;context_transformer_0/attention/value/einsum/Einsum;context_transformer_0/attention/query/add/ReadVariableOp/resource;context_transformer_0/attention/Mul;context_transformer_0/attention/Mul/y f4 [32]
000000 95 01 18 be 8c ec 41 3e 11 35 93 bd 9b 41 26 3e
       -0.14844353 0.18937892 -0.07187856 0.16235964
000010 ef 72 38 be 61 36 99 bc 3e 20 0a 3e 0f 79 bb 3d
       -0.18012594 -0.018702688 0.13488862 0.091539495
000020 a0 e1 83 3e db 4e e7 bd ac 9b 0d be 8f cb c8 3d
       0.25758076 -0.11294337 -0.13828915 0.09804451
000030 58 33 b7 3d 77 f7 6e 3e 88 91 04 3e d2 3d 0a 3d
       0.0894534 0.23336588 0.12946141 0.033750363
000040 f6 e5 2e 3c df 00 00 ba 1a d9 12 3d 46 92 1e bd
       0.010674944 -0.00048829423 0.035851575 -0.038713716
000050 b8 64 dd 3d 60 cc 50 bd 6e 34 a4 bd 8c dc c3 3d
       0.10810226 -0.050976157 -0.08017813 0.0956355
000060 00 b1 f8 3d 56 1a e4 3c ee 47 5e be 9a 1d 24 3e
       0.12143135 0.02784459 -0.21707126 0.16026917
000070 a5 b6 29 3d a6 c1 48 3e ec 79 8c bd c3 84 33 3e
       0.04143395 0.19605121 -0.06859192 0.17531113

context_transformer_0/kq_shared_bottleneck/norm/mul;context_transformer_0/kq_shared_bottleneck/norm/add;context_transformer_0/attention/query/einsum/Einsum;context_transformer_0/attention/query/add;context_transformer_0/attention/value/einsum/Einsum;context_transformer_0/attention/query/add/ReadVariableOp/resource;context_transformer_0/attention/Mul;context_transformer_0/attention/Mul/y1 f4 [32, 32]
000000 58 dd ad bd 8e 97 b9 3b ff 85 53 bc f8 93 76 3d
       -0.084894836 0.0056638187 -0.012910365 0.060199708
000010 aa 20 88 bc 7f ed 6d 3d 5a 95 09 be aa c3 c6 bd
       -0.016617138 0.058087822 -0.1343588 -0.09705289
000020 26 e3 ce bd 0c 2c ae bd 79 e9 68 3d da 7e 97 bc
       -0.10101919 -0.08504495 0.056863282 -0.018493105
000030 7b df 41 3e 03 84 44 bc ad a2 a3 bb ee d2 cd 3d
       0.18932907 -0.011994365 -0.0049937577 0.10049997
000040 6b 53 c8 3c 28 e5 89 3c 0f 4b 7d bc 2f 52 30 bd
       0.02445384 0.016832903 -0.01545979 -0.043047126
000050 4c cc 83 3d 31 44 8a 3d 10 fe e1 3d a2 78 d0 bd
       0.06435451 0.06751288 0.11034787 -0.10179259
000060 54 88 04 3c 4f 99 d7 bd 22 a7 65 bd dd a2 b0 bc
       0.008089144 -0.10527288 -0.056067593 -0.021562034
000070 88 2b 88 bc 9f bf 78 3d 09 ea b3 bc 11 fb 6f bd
       -0.01662232 0.06072962 -0.021962183 -0.058589045
000080 26 51 b2 3d 4e 3a f1 bc 3e a7 61 3b 7b 9f 85 bd
       0.08706884 -0.029446747 0.003443196 -0.06524559
000090 0c fe a1 3c 2f 8b 2c bd 79 30 ec 3d c4 c2 d3 3d
       0.01977446 -0.042124923 0.11532683 0.10339883
0000a0 bd 79 ad 3d 56 0c 07 3d 47 29 b4 bd 91 87 ba 3c
       0.08470485 0.03297075 -0.087969355 0.022769721
0000b0 c2 69 f3 bd e9 cb 5c 3c f7 cd 11 3c 27 6d ce bd
       -0.11885406 0.01347635 0.0088992035 -0.10079413
0000c0 07 ec 28 bd 30 8b 4e bc fe 56 a1 3b 5f 63 3a 3d
       -0.04124072 -0.012606427 0.0049237004 0.045504924
0000d0 e8 a2 a1 bd 73 a3 9b bd 11 8f 03 be 68 32 7c 3d
       -0.078924 -0.07599535 -0.12847544 0.06157151
0000e0 ab 61 55 3c d8 75 b7 3d 43 d1 8b 3d eb 2e d6 3c
       0.013023774 0.08958024 0.06827023 0.02614542
0000f0 7c 28 26 3c 69 1e 6f bd 4c 04 af 3b d6 b0 0e 3d
       0.010141488 -0.05837861 0.0053410884 0.034836613
000100 fc 45 35 bc 13 48 35 3d 7a 1f 67 3e 2d 57 70 bc
       -0.011064049 0.04425819 0.22570601 -0.014669222
000110 e6 e4 8a 3c da 5f d8 bb 6b da 0f 3e a0 38 95 3c
       0.01695485 -0.0066032233 0.14048164 0.018215477
000120 71 cb f6 bc 2a 59 4e bd 10 eb 06 3e fa a4 16 3d
       -0.030126305 -0.050378002 0.13175607 0.036778428
000130 dc b0 9a bd c1 95 26 bd 74 c3 c3 bc 89 09 e8 bc
       -0.075532645 -0.04067016 -0.02389691 -0.02832486
000140 a0 3a 7f 3b 7f 61 04 3c cf 21 07 3d ab eb b6 bd
       0.0038944855 0.0080798855 0.032991227 -0.08931669
000150 3d fa c0 bd c3 33 b3 3d 68 cf 36 be 3f 79 12 bb
       -0.09422729 0.08750107 -0.17852557 -0.00223501
000160 2d 36 3e bc 72 25 9d bd bc 8a 8f bc 41 34 e7 3c
       -0.011609596 -0.07673158 -0.017522208 0.028223159
000170 ec dc 6a 3d 1d 01 9f bb c6 8e 65 bb a4 8b fb 3c
       0.057339594 -0.0048524276 -0.0035027727 0.030706234
000180 ca 1c a2 3c d7 9b 39 bd e9 75 3b be 0f f6 11 bd
       0.019789118 -0.045314636 -0.18306698 -0.03563505
000190 50 fd 11 bd 4f ba 48 bc 1b 8f a3 bd 01 a7 10 3d
       -0.03564197 -0.012251451 -0.079862796 0.035315517
0001a0 c7 a2 6e 3d 53 6c 16 39 f7 d5 0d be 86 5b fe ba
       0.058260705 0.00014345469 -0.13851152 -0.0019405938
0001b0 98 fa cb 3d 35 09 31 3d 7c 5d 9f 3c 77 be 07 3d
       0.09959906 0.04322167 0.019453757 0.033140626
0001c0 92 4d 0d bd 12 22 bc bc bb 5b 4f 3c cb ac 8f 3d
       -0.034497805 -0.022965465 0.012656148 0.070153795
0001d0 31 27 83 3d 58 79 bc bd 00 4c cc 3d f0 e0 ff 3b
       0.064039595 -0.09202832 0.09975433 0.007808797
0001e0 de b8 6c b9 8c 29 84 3d 23 49 75 3d 99 89 31 bc
       -0.00022575582 0.06453237 0.0598842 -0.0108360285
0001f0 20 f4 08 bd 2a 8e ed bc 9c a2 c2 bc 6e 03 40 bd
       -0.03343594 -0.028998453 -0.023759179 -0.04687827
000200 d6 1e 8e bd ff 19 46 3d a1 0c 39 3d 8e 9f 33 3d
       -0.06939475 0.048364636 0.04517806 0.043853335
000210 6b 83 08 bc fd fb 37 3d 28 8a 77 bd 6e 4a a7 bd
       -0.008332114 0.04491805 -0.06043449 -0.08168493
000220 b2 83 a2 bd 55 34 7e bc 59 54 d4 3d 6f f1 4c bc
       -0.07935275 -0.015515407 0.103676505 -0.012508734
000230 11 64 26 3d 0c 9a 56 bc d8 3c b8 bc 55 9a 8a 3d
       0.040622775 -0.013098251 -0.02248995 0.06767718
000240 ad 31 00 3d a2 08 f4 3b 5f 71 51 3c bd b3 73 bd
       0.031297375 0.007447318 0.012783377 -0.059497584
000250 ee 3f fc 3c 8b 13 c6 3d 91 29 34 3d bd 03 e2 bc
       0.030792203 0.09671696 0.043984953 -0.027589673
000260 d0 4b be bc 39 73 98 bd 2f 0d 8c bd 60 3d 98 bc
       -0.02322951 -0.07443852 -0.06838452 -0.018583953
000270 51 c4 f2 bb 5b c0 31 3d ab 7e 6e 3a f8 c2 a4 bb
       -0.0074086566 0.043396335 0.00090978545 -0.005028125
000280 78 48 eb 3c 31 95 cb 3d db 5e 8a bc a3 b4 17 bd
       0.02872108 0.099405654 -0.016890934 -0.037037503
000290 e6 42 a1 bc 15 7c cc bd 36 9f 7f 3d 22 05 95 3d
       -0.01968522 -0.09984604 0.062407695 0.0727637
0002a0 a3 e8 99 3d de fe 41 3e c9 31 80 3c 3f 9e 1c 3d
       0.07515075 0.1894488 0.01564874 0.038236853
0002b0 a8 12 9f be 9d 48 c6 3d 8b e9 47 bd 39 77 11 bd
       -0.3106892 0.09681819 -0.04880671 -0.03551409
0002c0 72 ee ad bc 61 5c 10 bd bd 02 4d bd ca 37 2e 3d
       -0.021231864 -0.03524435 -0.05005144 0.042533673
0002d0 a2 99 9a bc 6b 39 8e bd b1 b4 e1 3c 6c 43 28 3e
       -0.018872086 -0.06944545 0.02755198 0.1643197
0002e0 76 a9 3b bd da 51 04 3e 1e 99 75 3d a7 d8 8c bd
       -0.045815907 0.12921849 0.059960477 -0.06877261
0002f0 2d 82 96 bb 1a b7 31 bc 9d 39 0d 3b a6 51 fd 3d
       -0.004593155 -0.0108468775 0.0021549233 0.12369089
000300 08 ec 89 3d 61 19 78 bd af ca ef bd 1b 53 26 3a
       0.067344725 -0.06057108 -0.11708581 0.0006344781
000310 a7 2a 35 3c 29 f5 81 3c e5 d7 2d bd 00 34 db 3c
       0.011057532 0.015863972 -0.04244222 0.026758194
000320 ab 7a 54 3d a4 02 01 3d 31 75 eb bd e0 7f 92 bc
       0.051874798 0.03149666 -0.11496962 -0.017883241
000330 14 43 a5 3c 55 b6 36 3c fb 25 fc 3c 3c 77 77 bd
       0.020173587 0.01115187 0.03077983 -0.060416445
000340 4b 83 b5 3b 5c 39 86 3c a6 e0 83 bd ae 34 a7 3d
       0.005539333 0.016384773 -0.06439333 0.08164345
000350 01 f9 18 3d 31 87 dd bd c9 db c4 3d c0 dc 41 bc
       0.037346844 -0.10816801 0.09612233 -0.011832416
000360 96 78 3a 3d 82 ce f3 3d d0 de 0c 3d bd ee 03 3c
       0.045525156 0.119046226 0.034392178 0.008052525
000370 4a 9d 59 bd e2 e7 40 bc 8b c0 bd 3c 35 9e c9 bc
       -0.05312852 -0.011774035 0.0231631 -0.024611572
000380 4b 91 88 3d 68 f9 9f bb 2a d7 c9 bc e3 7e f8 bc
       0.066683374 -0.0048820265 -0.024638731 -0.030333942
000390 54 3f 02 3c 55 de 67 bd b6 06 6a 3d 8e 44 3c 3d
       0.007949669 -0.056608517 0.057135306 0.045963816
0003a0 90 96 91 3d ae 6e 8e 3d 78 e3 87 bd b1 8f 7c 3c
       0.07108796 0.06954704 -0.06635183 0.015415118
0003b0 9e 32 e5 bd cb 00 24 3d 48 7e 65 3b 90 3e 82 bd
       -0.11191295 0.04003982 0.0035017896 -0.06359589
0003c0 cd 07 89 bc bf 1c d4 bc ac 56 f8 bc e6 40 36 3d
       -0.016727353 -0.025892613 -0.030314766 0.044495486
0003d0 e9 70 33 bd 7a 62 c0 bd c2 10 50 ba 12 7a 83 3d
       -0.04380885 -0.09393783 -0.00079370674 0.064197674
0003e0 59 88 11 3c ea 6a c5 3d c0 8b 65 3d 1e da 09 3c
       0.0088826055 0.09639533 0.05604148 0.00841382
0003f0 81 98 e0 bc ab 45 6b bc f4 36 0c 3c 05 8a 92 3c
       -0.02741647 -0.014359872 0.008558024 0.017888078

context_transformer_0/ffn_layer_0/intermediate_dense/einsum/Einsum;context_transformer_0/ffn_layer_0/intermediate_dense/Relu;context_transformer_0/ffn_layer_0/intermediate_dense/add f4 [32]
000000 ab 5d ab be ff 10 8f be 03 73 a6 bd 6d 34 97 bd
       -0.334699 -0.27942654 -0.081274055 -0.07383046
000010 13 8a 97 be e2 eb 32 be f2 97 0a bf 9f 74 3c be
       -0.2959753 -0.17472795 -0.541381 -0.18403862
000020 2e 2f 8a be 80 0e cb be fd da 74 be d4 6a db be
       -0.2698912 -0.396595 -0.23911662 -0.4285494
000030 a6 3f ba be d9 2b 0b bf 66 39 7a be 6e 1f 86 be
       -0.36376685 -0.5436378 -0.24435958 -0.26195854
000040 15 c1 d9 be c0 42 f3 be 29 dc 67 be 27 e6 dc bd
       -0.42530122 -0.47511864 -0.22642578 -0.107860856
000050 b8 50 6a be af dc 82 be 1a d0 70 be 27 53 40 be
       -0.22882354 -0.25558993 -0.23516884 -0.1878172
000060 d1 ca df be 95 b4 21 be e9 35 89 be a2 d7 ff be
       -0.43709424 -0.15791543 -0.26798943 -0.49969202
000070 dc c2 97 be a4 44 5a be 34 b1 bb be 65 73 60 be
       -0.29640853 -0.21315247 -0.36658633 -0.2191902

context_transformer_0/attention/norm/mul;context_transformer_0/attention/norm/add;context_transformer_0/ffn_layer_0/intermediate_dense/einsum/Einsum;context_transformer_0/ffn_layer_0/intermediate_dense/Relu;context_transformer_0/ffn_layer_0/intermediate_dense/add f4 [32, 32]
000000 a4 bc bc bb b2 02 fd 3c dc 11 55 3e d8 8c ac 3e
       -0.0057597924 0.030885074 0.20807594 0.33701205
000010 fd b0 c5 bd 68 ef 4f be ea 13 97 3e b9 87 35 3d
       -0.096528985 -0.2030617 0.2950738 0.04431889
000020 7d 11 3b 3e 90 f3 2d 3d 1b b4 4d be f5 30 70 3e
       0.1826839 0.042468607 -0.20088236 0.23456176
000030 91 a7 c9 bd f1 3a e2 bd 3e 50 fe 3d 5e bb 0b bf
       -0.09846414 -0.110463984 0.12417649 -0.54582775
000040 5d b6 66 3e 12 73 6e 3e e5 c1 db 3d 73 34 e4 3d
       0.22530504 0.23286083 0.10730342 0.111428164
000050 b2 71 1e 3d 47 87 6a 3e 66 13 37 3d ff e9 26 be
       0.038682647 0.22903167 0.044696234 -0.163002
000060 9d ad 3d 3e e8 ca b5 bd 44 27 b6 3e ac c5 15 3b
       0.1852326 -0.08876592 0.35576832 0.0022853417
000070 7f be f0 3c f4 1a a9 3e 9a 35 59 bd 45 04 99 be
       0.02938771 0.33028376 -0.053029634 -0.2988607
000080 cf 2e ed bd e1 6f d3 be ae 40 b5 3e 84 db 81 3e
       -0.11581194 -0.41296294 0.3540091 0.2536279
000090 eb a4 f5 bd 7d b3 71 be f3 0d 87 bc 9e 40 3a 3d
       -0.11994346 -0.23603626 -0.016486144 0.04547178
0000a0 ef 40 1a be e8 65 0a 3e ca 12 09 3e b6 43 21 bf
       -0.15063833 0.13515437 0.13386074 -0.62993944
0000b0 f1 8b 03 bf 8e 02 3c 3e 11 f4 d4 3d b8 a2 1e 3d
       -0.5138541 0.1836035 0.103981145 0.0387294
0000c0 96 ad 5c 3d ab 91 93 be 69 39 ce be 57 be 51 be
       0.053876482 -0.28822073 -0.40278175 -0.20482765
0000d0 c1 5f 33 3d b8 2c fd bb 0e fe f8 be 08 3a 26 3e
       0.04379249 -0.007726278 -0.48631328 0.16233075
0000e0 ec 53 9a 3d 60 4a 3e 3e 19 64 7c be 5a d4 ea bd
       0.07535538 0.1858306 -0.24647559 -0.11466284
0000f0 85 a9 3c be 1d 6b 96 bc c8 26 c4 3d cf 08 36 bd
       -0.18424042 -0.018361622 0.095777094 -0.044441994
000100 a0 3a 23 3e 82 c7 a3 3d 83 c3 47 3e 84 b4 6c bd
       0.15940332 0.079970375 0.19508176 -0.05778934
000110 3a 2f 2e be 5b 4b b2 be 8a 03 dd 3c d9 a0 96 be
       -0.17010203 -0.34823117 0.026979227 -0.29419592
000120 98 ff 9a bd 00 03 ba be fa 2f dd bc d7 a4 89 bd
       -0.07568282 -0.36330414 -0.027000416 -0.06720894
000130 d6 69 63 bc 1a 68 82 3e 48 03 3e bb 5a b8 cf bc
       -0.013880214 0.25470048 -0.0028993655 -0.02535646
000140 91 c2 ac 3e 3e ca f1 3e 5f 20 27 3e c2 0e 4c be
       0.33742192 0.4722461 0.16320942 -0.19927505
000150 a3 d0 87 3e 2f 05 a5 3e 5a ba db 3b 59 d3 4d bd
       0.26526365 0.32230517 0.0067055644 -0.050250385
000160 a2 24 dd 3d e6 9b 93 bc 5f 6c d9 bb 14 91 fd bd
       0.10798003 -0.018018674 -0.0066352333 -0.12381187
000170 85 0e 86 be 2c 95 16 3e 17 b5 25 3e 55 bf 46 3d
       -0.26182953 0.14705342 0.16182362 0.048522312
000180 8e 68 99 be d4 1d 9b 3d 47 6f 2c 3d fa 98 f4 3d
       -0.2996258 0.07574049 0.04209831 0.119432405
000190 0c b3 76 be c1 fa 35 3c 22 ea 85 3d 2f 03 93 bd
       -0.24091738 0.011107148 0.06538798 -0.071783416
0001a0 e2 bb 27 be b5 a0 b4 3e 58 05 cb 3e 21 28 3d be
       -0.16380265 0.3527886 0.39652514 -0.18472339
0001b0 60 37 9c 3d f0 c5 81 bd 5d 8a a6 3d 4b 63 4d be
       0.076277494 -0.06336582 0.081318595 -0.20057409
0001c0 77 6e 96 3e a7 c2 9d 3d 97 20 46 3e d7 8e d2 3d
       0.29381153 0.077031426 0.1934837 0.10281151
0001d0 c0 af 5a 3d 87 dc e0 3e 2e 21 0f be aa b6 a3 be
       0.053390265 0.4391825 -0.13977501 -0.319753
0001e0 04 95 77 be da 5c 40 be 40 46 2f 3e ee a7 a8 3c
       -0.24177939 -0.1878542 0.17116642 0.020587888
0001f0 0a 0a 7e 3d e9 c9 e6 3d c9 a2 a3 bd fa 28 8b be
       0.062021293 0.1126898 -0.07990033 -0.271797
000200 a7 a3 f1 3b 83 21 8e bd a7 1e 8a 3e 3e 3a 20 3e
       0.007374245 -0.069399856 0.2697651 0.15647218
000210 f7 25 63 be 8d 41 4b be 57 61 b5 3e 13 34 eb bd
       -0.22182451 -0.19849224 0.35425827 -0.11484542
000220 43 7a 28 3e 56 8a 95 3d 08 f6 52 be d8 24 6e bd
       0.16452889 0.07301776 -0.20601666 -0.058140606
000230 90 fc 33 be 26 b0 99 3d a9 ab 59 3c 21 fe a7 be
       -0.17576814 0.07504301 0.013285556 -0.32811072
000240 4c 7a 9c 3e c4 e6 b6 3e da 35 0b be 48 c0 59 be
       0.30562055 0.35722935 -0.13594761 -0.21264756
000250 42 8a 40 3e ce 0e b2 3e 43 6b e2 bc d7 18 29 be
       0.18802741 0.3477692 -0.027639037 -0.16513382
000260 f4 aa 8e 3e 77 de c4 bd 14 d7 b6 3d 50 45 3f be
       0.27864802 -0.09612744 0.08927742 -0.18678784
000270 40 d8 12 be 5a e2 ac 3e 40 06 a1 3e ac cc eb bd
       -0.14340305 0.33766443 0.3145008 -0.115136474
000280 1a d7 9e 3c fc 2a 84 3e 6a e9 93 3e 2f 93 71 bc
       0.019389678 0.25814044 0.28889018 -0.014744564
000290 88 bf 13 be 3b bd ea be 4e 37 fe bd 39 17 7d 3e
       -0.14428532 -0.45847496 -0.12412892 0.2471589
0002a0 47 69 bb bd f4 f0 6e 3e 31 3f 28 3f e5 3b 06 be
       -0.091509394 0.23334104 0.6572142 -0.13108785
0002b0 13 f1 de 3d 37 42 9b be 6b ae a6 3d c6 38 5e 3d
       0.10885825 -0.30323955 0.08138736 0.054253362
0002c0 9c be bc 3d 23 97 a3 3e 49 8a 80 be 38 60 0d 3e
       0.09216043 0.31951246 -0.25105503 0.13806236
0002d0 de 9a ce 3e 13 9e ff bc 3a b9 86 3d b2 a2 d7 3c
       0.4035253 -0.031203305 0.06578298 0.026322696
0002e0 26 77 68 bd 8e 79 8e be ea e5 29 be f4 8f 98 be
       -0.056754254 -0.27827114 -0.16591612 -0.29797328
0002f0 ca 7c 0e 3c 01 95 dc 3d f3 e8 82 bd 55 0f 1d be
       0.008696744 0.10770608 -0.06392088 -0.1533788
000300 e1 20 b9 3d 60 84 d2 bd 8f fe dc ba 91 ba 98 3e
       0.09039474 -0.10279155 -0.0016860532 0.2982984
000310 50 42 5f be 0e 07 31 be d4 5a d6 bd 67 52 a5 3e
       -0.2180264 -0.17287847 -0.10466543 0.3228943
000320 70 0b 55 3d 9c 03 81 3c ae 71 77 be e1 2e 8e 3e
       0.05201286 0.015748791 -0.24164459 0.2777014
000330 7e a8 cb be ce c1 e5 3e bf a3 07 3d 76 f8 3e bf
       -0.39776987 0.44874424 0.033115145 -0.7459787
000340 d9 16 bd be 0e 04 9a 3d 03 dd 2a 3e 2a 8c a7 3d
       -0.36931494 0.075203046 0.16685872 0.08181031
000350 9b af 09 be 81 0a 43 3e 55 23 9c 3e df 50 a5 bc
       -0.13445894 0.19046976 0.30495706 -0.020180164
000360 90 40 3c be 6e 9f c4 bd 29 6d d3 3e 62 bc 21 be
       -0.18384004 -0.09600721 0.4129422 -0.15794519
000370 bf 78 0c 3e 51 8d a5 3e 3d f3 ba bd e3 ae 07 be
       0.13717936 0.32334378 -0.09128425 -0.13250308
000380 5a e3 b0 3c 2d 7a 49 be dc cf 70 3d 36 38 fd 3d
       0.021592785 -0.19675513 0.05879198 0.12364237
000390 a8 3e d2 bd 71 4c a6 bc 2e 4e 2f 3d a2 d2 ec 3a
       -0.10265857 -0.020300122 0.042799167 0.0018068145
0003a0 55 8d bc bd 81 a3 4a be d1 bc 2e bd 00 8d 5b bc
       -0.092066444 -0.19788934 -0.042660538 -0.013400316
0003b0 03 88 61 bd 3a ee 04 bf 10 21 01 be 83 e7 0a be
       -0.05506135 -0.51926005 -0.12610269 -0.13564877
0003c0 ba ed f5 3d 36 5c b8 3e 6d 8d 0c 3d a7 48 1e 3d
       0.12008233 0.3600785 0.03431456 0.038643505
0003d0 4c 58 6e be fe b0 42 3e eb 5e 1a 3d 9e d7 8c be
       -0.2327587 0.1901283 0.037688177 -0.27508253
0003e0 60 da 5c be 33 4c e0 3c e4 dc 3e be 3a cb 01 bd
       -0.21567678 0.027380085 -0.1863895 -0.031687953
0003f0 6e f8 bd 3e 6f 8f 3b 3d 8f 92 66 be 4c d1 13 3f
       0.371036 0.045791086 -0.22516845 0.57741237

context_transformer_0/ffn_layer_1/intermediate_dense/einsum/Einsum;context_transformer_0/ffn_layer_1/intermediate_dense/Relu;context_transformer_0/ffn_layer_1/intermediate_dense/add f4 [32]
000000 25 28 a1 be a3 71 b9 3d a4 10 b4 be fd fd 93 be
       -0.3147594 0.090548776 -0.35168946 -0.28904715
000010 c3 10 45 be 95 82 14 bc af 24 97 be 42 ad 4c be
       -0.19244675 -0.009064336 -0.29520175 -0.19987968
000020 6f 3f 0e be 04 99 82 3d c0 5f 27 be b1 98 87 3c
       -0.13891385 0.06376842 -0.1634512 0.016552301
000030 1f c8 10 be 11 ae 5a be 3b f3 5d be 06 32 6e be
       -0.1413884 -0.21355464 -0.21674816 -0.2326127
000040 2c d6 e0 be ea 8e bc be 73 fa ae bd bc c8 65 bd
       -0.439134 -0.36827785 -0.08543863 -0.05609964
000050 9e 3e 3c be ab a2 52 be 19 c6 99 be d1 2e a9 bd
       -0.18383262 -0.20569865 -0.3003395 -0.08260883
000060 23 c7 22 3c 99 c5 81 be 30 45 60 be dd 2b 0b 3e
       0.009935173 -0.25346068 -0.21901393 0.13590951
000070 56 33 fc bd 9f e1 13 be 4a d5 b6 be 30 a9 11 be
       -0.12314479 -0.14441536 -0.35709602 -0.14224696

context_transformer_0/ffn_layer_0/norm/mul;context_transformer_0/ffn_layer_0/norm/add;context_transformer_0/ffn_layer_1/intermediate_dense/einsum/Einsum;context_transformer_0/ffn_layer_1/intermediate_dense/Relu;context_transformer_0/ffn_layer_1/intermediate_dense/add f4 [32, 32]
000000 30 66 06 be fb ba 45 be a0 40 87 3e a1 19 cd bd
       -0.13124919 -0.19309609 0.26416492 -0.10014654
000010 b3 75 83 bd 32 71 e2 bd 8b 32 d2 3d 7f 0a 57 3e
       -0.06418934 -0.110567465 0.102635466 0.21000098
000020 a1 36 87 be 7c 6d 15 3c 4a a9 b7 bd 27 c3 4d be
       -0.26408866 0.009120341 -0.08967836 -0.20093976
000030 b8 d1 a5 bd e7 2c 08 be 3e 7a 7d bc ef 57 89 bd
       -0.08096641 -0.13298379 -0.015471039 -0.06706225
000040 83 54 4f bd f2 a5 4a 3e f9 75 a4 3d a4 02 0f be
       -0.050617706 0.19789866 0.08030314 -0.13965851
000050 76 1b 60 be 5b f4 ef 3d fa 5a eb 3d fd 0b 68 3e
       -0.21885476 0.11716529 0.11491962 0.22660823
000060 de bd 78 3d 18 a1 9c bc 84 23 3d bc fc e4 f0 bd
       0.060727946 -0.019119784 -0.011544112 -0.11762425
000070 dd 13 b1 3e 5b 9e cf 3d 4e 1a b3 3e 30 ef 88 3e
       0.34585467 0.10137626 0.34981006 0.26744986
000080 7b dd 17 3e f0 4b cf bb d5 db bb 3d 9c ff a2 bd
       0.14830582 -0.006326191 0.09172789 -0.0795891
000090 90 07 2e bc c7 d5 4e bd 60 3c 7f 3e a3 b9 1f bd
       -0.01062192 -0.050496843 0.24925375 -0.038995396
0000a0 f7 2b dc 3e 20 04 71 be d9 ca 01 be a2 56 3f 3e
       0.43002293 -0.2353673 -0.12675036 0.18685392
0000b0 0d e4 a2 be c3 7a 64 3e 4c 0a db bd 8c 62 f4 bc
       -0.31814614 0.22312455 -0.10695323 -0.029832147
0000c0 6a 8c b2 bd 95 2f c9 3e 9d 50 7a 3c 69 e3 e4 3d
       -0.08718188 0.39294115 0.015278009 0.111761875
0000d0 26 fd 31 bd de df f5 3c 7a cb d7 bc b7 7a 58 be
       -0.04345431 0.030013975 -0.026342142 -0.21140562
0000e0 28 77 91 bd 1e ee 33 bd 6c f4 b4 3e 72 04 98 bd
       -0.071028054 -0.043928258 0.3534273 -0.07422723
0000f0 7c 50 b0 bd 4a d7 30 bd 02 ec 41 bc 16 91 82 be
       -0.08609101 -0.043174066 -0.011836054 -0.25501317
000100 c3 8f 8b be 85 a8 b4 3d 10 d0 71 bd 39 17 f1 3d
       -0.2725812 0.08821205 -0.059036314 0.117720075
000110 d4 bb 81 3c 38 33 31 3e e4 f7 41 be 51 d2 51 3e
       0.015836634 0.17304695 -0.18942219 0.20490386
000120 d1 7d 3b be bd e4 ee 3d 25 94 1f be 4e 90 12 3f
       -0.18309714 0.11664722 -0.15583856 0.5725144
000130 33 fe 3a 3d b7 a2 b1 be 7d e0 ab 3c ef 70 9f bd
       0.04565258 -0.34694454 0.020981068 -0.07785212
000140 3d 22 09 3d 20 76 ba 3c 85 3c a2 3e c4 b5 a1 bd
       0.033479918 0.022761405 0.31686798 -0.07895997
000150 54 96 49 bc 83 5e a2 3d cf 5b 5c 3e 4f 1f b8 bd
       -0.012303907 0.07928183 0.21519397 -0.08990347
000160 9c 74 a6 3d 47 8b 02 3e e0 a4 7c 3d ef 3c 93 bd
       0.0812771 0.12748443 0.061680675 -0.071893565
000170 88 fb d5 bc 10 c8 d9 3c 49 db 18 3c 4c b0 e8 3e
       -0.026120916 0.026584655 0.009329625 0.45447004
000180 f4 22 8f 3e c4 c0 88 3e 00 3a 08 bb 46 bf 10 3d
       0.27956355 0.26709569 -0.0020786524 0.035338663
000190 a1 81 e4 3d 91 5d 11 be a6 5f 86 bd 79 42 7d be
       0.11157537 -0.14195849 -0.06561212 -0.24732389
0001a0 29 8e 90 3e d6 68 b4 bd d2 79 1f be 5b 3f 36 3d
       0.2823346 -0.08809058 -0.15573815 0.044494014
0001b0 fb 8a 14 bd e2 81 8a be 63 2f 72 3e 90 bc 65 3d
       -0.036265355 -0.27052218 0.23650889 0.05608803
0001c0 5d 14 ea 3e f0 3f 11 3e 7c eb a9 be f0 8c 0c 3d
       0.4571866 0.14184546 -0.33187473 0.034314096
0001d0 98 3a 69 3d ca 43 eb 3c 64 4e 2c bd f7 8c 1c bc
       0.056940645 0.028718848 -0.042066947 -0.009555093
0001e0 2b e2 12 be e5 3e 36 bc 61 79 37 3d 67 5e 37 3d
       -0.14344089 -0.011123394 0.04479349 0.044767763
0001f0 5c 86 7d 3c 88 6d 9c bc f4 1b 04 3d 7b 92 53 be
       0.015473928 -0.019095197 0.03225322 -0.20661347
000200 5e 2c 1d be 5b 58 33 3d 37 4e 23 3e c0 5b b8 3b
       -0.15348956 0.043785434 0.15947805 0.005626172
000210 80 60 37 3e 6d 10 b1 3c c8 8f ed 3e dd 11 91 3e
       0.17907906 0.021614278 0.4639876 0.2833394
000220 3f 76 44 be d9 23 1e bc 45 b4 c4 bd 15 1d a7 3d
       -0.19185732 -0.009652101 -0.09604696 0.08159844
000230 03 aa bd 3e 07 f4 a9 3e 7c 1d 54 3e 03 a3 b8 bd
       0.3704377 0.3319399 0.20714372 -0.09015467
000240 1c 15 eb bd d1 2a 49 3e 56 06 22 3e bb 52 33 3e
       -0.11478636 0.1964524 0.1582273 0.17512028
000250 61 92 a5 3e de 24 70 bc 37 f6 1d bd a4 b7 c1 be
       0.3233824 -0.014657227 -0.038564887 -0.3783542
000260 5a d6 83 be f1 5b 80 bd bc 06 9a 3d 66 8c 30 3a
       -0.25749475 -0.062675364 0.07520816 0.0006734788
000270 13 a3 b4 3d df 7d bf bc 12 c8 b7 be 68 59 47 be
       0.088201664 -0.02337545 -0.3589483 -0.194677
000280 16 a8 34 bc b8 fa 4f 3d 77 16 fa bd 9e 34 53 3d
       -0.011026403 0.050776213 -0.12211316 0.05156385
000290 15 a8 90 bb 24 0c 86 bd 38 74 82 bd be 8e ef 3d
       -0.004414568 -0.065452844 -0.06369823 0.11697148
0002a0 c7 69 96 bd 51 68 95 3e 96 c1 aa 3e bc 2c 8c 3d
       -0.07344394 0.2918115 0.3335082 0.0684447
0002b0 32 e0 86 3d 7a d9 86 3e 34 4d c4 3d ef be 90 bd
       0.065857306 0.26337796 0.09585038 -0.07067668
0002c0 f0 62 cc 3d 39 9d bd 3e 94 37 07 bd c7 fb 4b 3d
       0.09979808 0.37034014 -0.033011988 0.04980066
0002d0 84 aa fd 3e bd af 76 3c 57 f2 83 3e 7d 6a ef 3b
       0.49544156 0.015056548 0.25770828 0.0073063956
0002e0 71 f2 b7 be 4b fb 28 bd e9 c3 13 3e 4f 71 b0 3d
       -0.35927156 -0.041255277 0.14430203 0.08615362
0002f0 92 b5 3d be 29 94 8b bd 8e 87 ec bd 1c f5 fe bc
       -0.18526295 -0.06815369 -0.115492925 -0.031122737
000300 09 a7 73 be 78 8a 7e ba c3 dd cd 3e ca c9 b8 3d
       -0.23794188 -0.00097099645 0.40208253 0.09022863
000310 12 15 23 be 5d 7c ec be a1 61 92 be 35 b5 0f 3e
       -0.15926006 -0.46188632 -0.2859011 0.14033969
000320 29 0c 81 be be c0 0a be ba 7f 10 be 38 5a 16 3e
       -0.2520459 -0.13550088 -0.14111224 0.14682853
000330 49 f5 df bd 01 3b 6e 3e a7 9a 31 3e 20 6d 08 bc
       -0.10935456 0.23264696 0.17344151 -0.008326799
000340 e0 68 0c bd 57 07 93 be 14 c8 11 3e 8f 79 36 3d
       -0.034279704 -0.28716537 0.1423648 0.04454952
000350 e6 83 a9 be 93 82 06 3e 83 63 80 bc 6c b0 d0 3c
       -0.33108443 0.13135748 -0.01567245 0.02547475
000360 d1 c0 00 3e bf 46 db bc b0 fd 3d bd 8d b9 48 bd
       0.12573554 -0.026767133 -0.046384513 -0.04900508
000370 54 6b be be 36 bc ed bb 20 ee 69 be 45 1a 43 bd
       -0.3719126 -0.0072551025 -0.22844744 -0.047632474
000380 eb 6f 1f be 08 22 c8 bc df 38 a5 3e f0 a0 68 3e
       -0.15570037 -0.02443029 0.32269952 0.22717643
000390 73 4c 10 3c 97 d1 b9 be ab 9f 41 3e cd fa 8c be
       0.008807289 -0.36292717 0.18908565 -0.27535096
0003a0 55 69 ad 3e 16 10 0c be 22 25 34 3e 72 be 4a 3e
       0.33869424 -0.13678011 0.1759229 0.19799212
0003b0 86 5a 29 be 29 68 68 be c0 fa bb 3c 41 c6 c5 bb
       -0.16538438 -0.22695984 0.022946715 -0.0060355966
0003c0 d3 c5 69 3e 96 4b 53 bd 65 bf ca be 4d 4c f2 bd
       0.2282937 -0.051585756 -0.39599147 -0.118309595
0003d0 3e 54 13 be d1 76 d9 bc 0b 40 ee bd b9 11 9a 3d
       -0.14387605 -0.026545914 -0.11633309 0.075229116
0003e0 f1 20 72 be b2 3f ef bd 89 e2 69 bd 12 fa 96 bc
       -0.23645379 -0.11682071 -0.057100806 -0.01842979
0003f0 41 89 b0 3e dd 2f 3e be 46 e1 aa bd bb 80 ac be
       0.34479716 -0.18572946 -0.08343749 -0.33691964

context_transformer_0/ffn_layer_2/intermediate_dense/einsum/Einsum;context_transformer_0/ffn_layer_2/intermediate_dense/Relu;context_transformer_0/ffn_layer_2/intermediate_dense/add f4 [32]
000000 ef 16 79 bc 71 e0 6a bd 5f 17 99 bd fe c5 53 be
       -0.015203222 -0.05734295 -0.07475161 -0.20680997
000010 ba 40 d1 bd 95 2a ab be 1e a2 e9 bc a7 a0 01 bd
       -0.10217424 -0.33430925 -0.028519686 -0.03164735
000020 53 2d 0e bc 17 3f 8d be e5 37 50 be f2 ad 47 be
       -0.008677798 -0.27587196 -0.20333822 -0.19499949
000030 79 12 21 be 2e 11 23 be f6 3f d2 bd 30 0a 24 be
       -0.15729703 -0.15924522 -0.10266106 -0.16019511
000040 00 24 1b be ca 87 b4 bd 9a ab d1 bc ac 8d 9c be
       -0.15150452 -0.08814962 -0.025594521 -0.30576837
000050 1c bc 4b bd 11 9b e0 bd c6 24 43 be 72 0b 4a be
       -0.049739942 -0.109670766 -0.19056997 -0.19730929
000060 5b b1 0a be 64 93 2b be f3 25 95 be 56 0c 34 be
       -0.13544218 -0.16755444 -0.29130515 -0.17582831
000070 ae b8 c2 be a8 d2 04 be 94 8c 24 be 56 f3 53 be
       -0.38031524 -0.12970984 -0.16069251 -0.20698294
